<ul><li>Model: "sequential"<br>_________________________________________________________________<br> Layer (type)                Output Shape              Param #   <br>=================================================================<br> conv2d (Conv2D)             (None, 39, 7222, 16)      80        <br>                                                                 <br> max_pooling2d (MaxPooling2D  (None, 19, 3611, 16)     0         <br> )                                                               <br>                                                                 <br> dropout (Dropout)           (None, 19, 3611, 16)      0         <br>                                                                 <br> conv2d_1 (Conv2D)           (None, 18, 3610, 32)      2080      <br>                                                                 <br> max_pooling2d_1 (MaxPooling  (None, 9, 1805, 32)      0         <br> 2D)                                                             <br>                                                                 <br> dropout_1 (Dropout)         (None, 9, 1805, 32)       0         <br>                                                                 <br> conv2d_2 (Conv2D)           (None, 8, 1804, 64)       8256      <br>                                                                 <br> max_pooling2d_2 (MaxPooling  (None, 4, 902, 64)       0         <br> 2D)                                                             <br>                                                                 <br> dropout_2 (Dropout)         (None, 4, 902, 64)        0         <br>                                                                 <br> conv2d_3 (Conv2D)           (None, 3, 901, 128)       32896     <br>                                                                 <br> max_pooling2d_3 (MaxPooling  (None, 1, 450, 128)      0         <br> 2D)                                                             <br>                                                                 <br> dropout_3 (Dropout)         (None, 1, 450, 128)       0         <br>                                                                 <br> global_average_pooling2d (G  (None, 128)              0         <br> lobalAveragePooling2D)                                          <br>                                                                 <br> dense (Dense)               (None, 5)                 645       <br>                                                                 <br>=================================================================<br>Total params: 43,957<br>Trainable params: 43,957<br>Non-trainable params: 0<br>_________________________________________________________________<br></li><li>[INFO] Preparing...</li><li>[INFO] Training process running...</li><li>[INFO] Parameter set wi
…
